Sequential
======================================================================
Layer (type)         Output Shape         Param #    Trainable 
======================================================================
Conv2d               [64, 14, 14]         9,408      True      
______________________________________________________________________
BatchNorm2d          [64, 14, 14]         128        True      
______________________________________________________________________
ReLU                 [64, 14, 14]         0          False     
______________________________________________________________________
MaxPool2d            [64, 7, 7]           0          False     
______________________________________________________________________
Conv2d               [64, 7, 7]           36,864     True      
______________________________________________________________________
BatchNorm2d          [64, 7, 7]           128        True      
______________________________________________________________________
ReLU                 [64, 7, 7]           0          False     
______________________________________________________________________
Conv2d               [64, 7, 7]           36,864     True      
______________________________________________________________________
BatchNorm2d          [64, 7, 7]           128        True      
______________________________________________________________________
Conv2d               [64, 7, 7]           36,864     True      
______________________________________________________________________
BatchNorm2d          [64, 7, 7]           128        True      
______________________________________________________________________
ReLU                 [64, 7, 7]           0          False     
______________________________________________________________________
Conv2d               [64, 7, 7]           36,864     True      
______________________________________________________________________
BatchNorm2d          [64, 7, 7]           128        True      
______________________________________________________________________
Conv2d               [128, 4, 4]          73,728     True      
______________________________________________________________________
BatchNorm2d          [128, 4, 4]          256        True      
______________________________________________________________________
ReLU                 [128, 4, 4]          0          False     
______________________________________________________________________
Conv2d               [128, 4, 4]          147,456    True      
______________________________________________________________________
BatchNorm2d          [128, 4, 4]          256        True      
______________________________________________________________________
Conv2d               [128, 4, 4]          147,456    True      
______________________________________________________________________
BatchNorm2d          [128, 4, 4]          256        True      
______________________________________________________________________
ReLU                 [128, 4, 4]          0          False     
______________________________________________________________________
Conv2d               [128, 4, 4]          147,456    True      
______________________________________________________________________
BatchNorm2d          [128, 4, 4]          256        True      
______________________________________________________________________
Conv2d               [256, 2, 2]          294,912    True      
______________________________________________________________________
BatchNorm2d          [256, 2, 2]          512        True      
______________________________________________________________________
ReLU                 [256, 2, 2]          0          False     
______________________________________________________________________
Conv2d               [256, 2, 2]          589,824    True      
______________________________________________________________________
BatchNorm2d          [256, 2, 2]          512        True      
______________________________________________________________________
Conv2d               [256, 2, 2]          589,824    True      
______________________________________________________________________
BatchNorm2d          [256, 2, 2]          512        True      
______________________________________________________________________
ReLU                 [256, 2, 2]          0          False     
______________________________________________________________________
Conv2d               [256, 2, 2]          589,824    True      
______________________________________________________________________
BatchNorm2d          [256, 2, 2]          512        True      
______________________________________________________________________
Conv2d               [512, 1, 1]          1,179,648  True      
______________________________________________________________________
BatchNorm2d          [512, 1, 1]          1,024      True      
______________________________________________________________________
ReLU                 [512, 1, 1]          0          False     
______________________________________________________________________
Conv2d               [512, 1, 1]          2,359,296  True      
______________________________________________________________________
BatchNorm2d          [512, 1, 1]          1,024      True      
______________________________________________________________________
Conv2d               [512, 1, 1]          2,359,296  True      
______________________________________________________________________
BatchNorm2d          [512, 1, 1]          1,024      True      
______________________________________________________________________
ReLU                 [512, 1, 1]          0          False     
______________________________________________________________________
Conv2d               [512, 1, 1]          2,359,296  True      
______________________________________________________________________
BatchNorm2d          [512, 1, 1]          1,024      True      
______________________________________________________________________
AdaptiveAvgPool2d    [512, 1, 1]          0          False     
______________________________________________________________________
AdaptiveMaxPool2d    [512, 1, 1]          0          False     
______________________________________________________________________
Flatten              [1024]               0          False     
______________________________________________________________________
BatchNorm1d          [1024]               2,048      True      
______________________________________________________________________
Dropout              [1024]               0          False     
…
